…
oders, self).__init__()          self.encoder = Encoder(input_size, embeddings_size)         self.decoder = Decoder(embeddings_size=embeddings_size)      def forward(self, input: torch.Tensor) -&gt; torch.Tensor:         out = self.encoder(input)         return self.decoder(out) <p>Let's create a instance of <code>AutoEncoders</code> model, and see the whole architecture.</p> In\u00a0[22]: Copied! <pre>model = AutoEncoders()\n</pre> model = AutoEncoders() In\u00a0[23]: Copied! <pre>model\n</pre> model Out[23]: <pre>AutoEncoders(\n  (encoder): Encoder(\n    (conv_encoder): Sequential(\n      (0): Conv2d(1, 10, kernel_size=(3, 3), stride=(1, 1))\n      (1): Conv2d(10, 8, kernel_size=(3, 3), stride=(1, 1))\n      (2): ReLU()\n      (3): Conv2d(8, 4, kernel_size=(7, 7), stride=(1, 1))\n      (4): Flatten(start_dim=1, end_dim=-1)\n    )\n    (linear_encoder): Sequential(\n      (0): Linear(in_features=1296, out_features=128, bias=True)\n      (1): Linear(in_features=128, out_features=32, bias=True)\n      (2): ReLU()\n      (3): Linear(in_features=32, out_features=100, bias=True)\n    )\n  )\n  (decoder): Decoder(\n    (linear_decoder): Sequential(\n      (0): Linear(in_features=100, out_features=32, bias=True)\n      (1): ReLU()\n      (2): Linear(in_features=32, out_features=128, bias=True)\n      (3): ReLU()\n      (4): Linear(in_features=128, out_features=1296, bias=True)\n      (5): Unflatten(dim=1, unflattened_size=(4, 18, 18))\n    )\n    (conv_decoder): Sequential(\n      (0): ConvTranspose2d(4, 8, kernel_size=(7, 7), stride=(1, 1))\n      (1): ReLU()\n      (2): ConvTranspose2d(8, 10, kernel_size=(3, 3), stride=(1, 1))\n      (3): ReLU()\n      (4): ConvTranspose2d(10, 1, kernel_size=(3, 3), stride=(1, 1))\n    )\n  )\n)</pre> In\u00a0[24]: Copied! <pre>img = model(mnist[0][0])\n</pre> img = model(mnist[0][0]) In\u00a0[25]: Copied! <pre>img.shape\n</pre> img.shape Out[25]: <pre>torch.Size([1, 1, 28, 28])</pre> In\u00a0[26]: Copied! <pre>imshow_image(img)\n</pre> imshow_image(img) <p>Now, it's the time for trainnig.</p> <p>Since, the AutoEncoders model, try t
…
ate_dict(torch.load(\"./models/AutoEncoders_V1.pth\"))          self.encoder = _base_model.encoder          self.classifier = nn.Sequential(             nn.Linear(100, 32),             nn.ReLU(),             nn.Linear(32, 10)         )      def forward(self, input: torch.Tensor) -&gt; torch.Tensor:         out = self.encoder(input)         return self.classifier(out)      In\u00a0[179]: Copied! <pre>clf = MnistClassifier()\n</pre> clf = MnistClassifier() In\u00a0[180]: Copied! <pre>clf\n</pre> clf Out[180]: <pre>MnistClassifier(\n  (encoder): Encoder(\n    (conv_encoder): Sequential(\n      (0): Conv2d(1, 10, kernel_size=(3, 3), stride=(1, 1))\n      (1): Conv2d(10, 8, kernel_size=(3, 3), stride=(1, 1))\n      (2): ReLU()\n      (3): Conv2d(8, 4, kernel_size=(7, 7), stride=(1, 1))\n      (4): Flatten(start_dim=1, end_dim=-1)\n    )\n    (linear_encoder): Sequential(\n      (0): Linear(in_features=1296, out_features=128, bias=True)\n      (1): Linear(in_features=128, out_features=32, bias=True)\n      (2): ReLU()\n      (3): Linear(in_features=32, out_features=100, bias=True)\n    )\n  )\n  (classifier): Sequential(\n    (0): Linear(in_features=100, out_features=32, bias=True)\n    (1): ReLU()\n    (2): Linear(in_features=32, out_features=10, bias=True)\n  )\n)</pre> In\u00a0[183]: Copied! <pre>imgs, labels = next(iter(train_loader))\n</pre> imgs, labels = next(iter(train_loader)) In\u00a0[184]: Copied! <pre>imshow_image(imgs[0])\n</pre> imshow_image(imgs[0]) In\u00a0[185]: Copied! <pre>clf(imgs[0])\n</pre> clf(imgs[0]) Out[185]: <pre>tensor([[-0.0270, -0.0376, -0.2098,  0.0372, -0.0946,  0.6591, -0.206
…
